Sources/__SENTSDKExt/Resources/SENTSDK.bundle/TFLiteModels/VisitEssentials.default.0_6.tflite (tflite, 605134 bytes, 31 tensors)

GatherV2/params f4 [98, 240]
0.0104349125 0.04667587 0.055404235 0.04957328 0.03770871 0.025074173 0.014592499 0.0075643235
0.0042198114 0.004134106 0.0065325727 0.010507918 0.015167765 0.01972824 0.023566445 0.02624246
0.027499462 0.02724894 0.02554651 0.022562597 0.018551279 0.013819694 0.008699721 0.0035230827
-0.0013994528 -0.005794471 -0.009437859 -0.012162499 -0.013862038 -0.014491176 -0.0140629755 -0.0126437275
-0.0103459265 -0.007319868 -0.0037443817 0.00018286268 0.004255055 0.008265607 0.012016879 0.015328046
0.018041892 0.020030448 0.02119935 0.021490922 0.020885956 0.019404262 0.017104037 0.014080152
0.010461493 0.0064074574 0.0021037578 -0.0022423116 -0.006407015 -0.010155568 -0.0132476445 -0.015442862
-0.016506134 -0.016212752 -0.0143531365 -0.010737134 -0.005197812 0.0024053059 0.012183615 0.024217432
0.038554646 0.055210005 0.07416504 0.09536859 0.1187379 0.14416029 0.17149518 0.20057675
0.2312167 0.26320758 0.2963261 0.33033684 0.3649958 0.40005428 0.43526247 0.47037306
0.5051448 0.53934544 0.5727552 0.60516924 0.63640004 0.6662795 0.6946607 0.72141933
0.7464543 0.7696887 0.79106975 0.8105685 0.8281796 0.8439202 0.85782874 0.8699637
0.8804017 0.8892356 0.89657253 0.9025315 0.9072413 0.9108377 0.9134617 0.9152565
0.9163656 0.9169305 0.9170883 0.91697013 0.9166992 0.91638905 0.91614246 0.9160501
0.9161896 0.91662526 0.917407 0.9185707 0.9201382 0.9221173 0.9245027 0.9272764
0.9304087 0.9338595 0.93757915 0.94151 0.9455879 0.94974333 0.95390344 0.9579931
0.9619368 0.9656597 0.96908957 0.9721576 0.97479993 0.9769585 0.9785822 0.9796273
0.9800585 0.9798488 0.97898024 0.9774436 0.9752383 0.9723725 0.9688618 0.9647296
0.96000546 0.95472485 0.94892776 0.94265777 0.935961 0.92888486 0.9214768 0.9137832
0.90584844 0.8977136 0.88941556 0.8809862 0.8724516 0.8638316 0.855139 0.8463798
0.83755285 0.8286499 0.81965595 0.81055003 0.80130523 0.79188997 0.78226876 0.7724033
0.762254 0.7517805 0.7409436 0.72970635 0.7180356 0.70590276 0.69328564 0.6801693
0.6665466 0.6524196 0.6378 0.6227087 0.6071776 0.59124726 0.57496846 0.55840033
0.5416096 0.52467006 0.50766015 0.4906613 0.47375706 0.45703074 0.4405624 0.4244276
0.40869513 0.39342567 0.37866867 0.364461 0.3508272 0.3377764 0.32530272 0.313386
0.3019907 0.29106754 0.2805569 0.27038676 0.2604823 0.25075984 0.24114026 0.23154579
0.22190638 0.21216835 0.20228992 0.19225265 0.18206246 0.17174843 0.16136865 0.15100916
0.14078031 0.13081385 0.12125963 0.11227461 0.10401622 0.09662353 0.09021524 0.084865786
0.08058864 0.07733191 0.074958235 0.07323849 0.071857095 0.07041774 0.06847067 0.06556332
0.0613094 0.055497248 0.048253402 0.04023789 0.032935765 0.029007405 0.032775473 0.050786126
0.12315638 0.11875369 0.10950802 0.09789159 0.08560374 0.07374712 0.06297407 0.05360659
0.04573344 0.039287426 0.03410564 0.029975342 0.026667826 0.023962284 0.021661635 0.019601874
00000000: 32f7 2a3c 322f 3f3d 8def 623d 5a0d 4b3d
00000010: 7374 1a3d 5a68 cd3c 6015 6f3c 25de f73b
00000020: 5846 8a3b 6577 873b 310f d63b 6729 2c3c
00000030: 3882 783c 1e9d a13c 6b0e c13c 6dfa d63c
00000040: 8d46 e13c 2b39 df3c ea46 d13c 32d5 b83c
00000050: daf8 973c ff6b 623c 4689 0e3c 85e3 663b
00000060: d86d b7ba 8cdf bdbb 40a1 1abc 3845 47bc
00000070: 9a1d 63bc 666c 6dbc 6568 66bc a327 4fbc
00000080: f681 29bc 81db efbb 4d64 75bb d4be 3f39
00000090: fd6d 8b3b 786c 073c 72e2 443c 7c22 7b3c
000000a0: 97cc 933c e516 a43c 42aa ad3c bb0d b03c
000000b0: 0619 ab3c b0f5 9e3c c41d 8c3c 70b0 663c
000000c0: af66 2b3c a6f5 d13b 33df 093b bff3 12bb
000000d0: f0f1 d1bb 8a63 26bc a60c 59bc 0f04 7dbc
000000e0: df37 87bc 9bd0 84bc 6b29 6bbc ceea 2fbc
000000f0: 6852 aabb 56a2 1d3b c99d 473c a363 c63c
00000100: 7aeb 1d3d e323 623d d7e3 973d 9b50 c33d
00000110: db2c f33d c19e 133e 6f9c 2f3e fe63 4d3e
00000120: 12c4 6c3e 25c3 863e 0eb8 973e e921 a93e
00000130: bbe0 ba3e ead3 cc3e b9da de3e bdd4 f03e
00000140: 2b51 013f 8b12 0a3f 16a0 123f 5fec 1a3f
00000150: 1deb 223f 4b91 2a3f 49d5 313f f0ae 383f
00000160: a117 3f3f 520a 453f 8c83 4a3f 6b81 4f3f
00000170: 9403 543f 270b 583f aa9a 5b3f f1b5 5e3f
00000180: 0162 613f f2a4 633f c785 653f 4e0c 673f
00000190: f740 683f a92c 693f a0d8 693f 404e 6a3f
000001a0: f096 6a3f f5bb 6a3f 4dc6 6a3f 8ebe 6a3f
000001b0: ccac 6a3f 7998 6a3f 5088 6a3f 4282 6a3f
000001c0: 678b 6a3f f4a7 6a3f 2fdb 6a3f 7327 6b3f
000001d0: 2d8e 6b3f e10f 6c3f 35ac 6c3f fc61 6d3f
000001e0: 442f 6e3f 6b11 6f3f 3005 703f cd06 713f
000001f0: 0c12 723f 6122 733f 0433 743f 093f 753f
00000200: 7d41 763f 7935 773f 4116 783f 52df 783f
00000210: 7d8c 793f f419 7a3f 5d84 7a3f dbc8 7a3f
00000220: 1de5 7a3f 5fd7 7a3f 739e 7a3f be39 7a3f
00000230: 38a9 793f 67ed 783f 5407 783f 85f8 763f
00000240: ebc2 753f d968 743f eeec 723f 0552 713f
00000250: 249b 6f3f 66cb 6d3f e7e5 6b3f b2ed 693f
00000260: afe5 673f 8fd0 653f bdb0 633f 5088 613f
00000270: fd58 5f3f 1124 5d3f 64ea 5a3f 59ac 583f
00000280: dd69 563f 6622 543f f9d4 513f 3580 4f3f
00000290: 5722 4d3f 4db9 4a3f c442 483f 39bc 453f
000002a0: 1423 433f b074 403f 7bae 3d3f 09ce 3a3f
000002b0: 2ed1 373f 0bb6 343f 2b7b 313f 931f 2e3f
000002c0: cca2 2a3f f904 273f dc46 233f d669 1f3f
000002d0: fe6f 1b3f fb5b 173f 2231 133f 53f3 0e3f
000002e0: eda6 0a3f c750 063f 04f6 013f f537 fb3e
000002f0: 4990 f23e efff e93e 6591 e13e 934e d93e
00000300: 7d40 d13e 176f c93e dce0 c13e a29a ba3e
00000310: 9f9f b33e 07f1 ac3e 148e a63e 2174 a03e
00000320: 869e 9a3e ce06 953e 27a5 8f3e 2270 8a3e
00000330: f05d 853e 9863 803e 79ed 763e 571a 6d3e
00000340: 6d3b 633e a942 593e 1725 4f3e e1dd 443e
00000350: 956e 3a3e d2de 2f3e d33d 253e 25a2 1a3e
00000360: b728 103e 11f4 053e f856 f83d 3bf0 e53d
00000370: 7506 d53d 8fe2 c53d c5c2 b83d 1dce ad3d
00000380: a80b a53d 3160 9e3d b483 993d 10fe 953d
00000390: d029 933d 2d37 903d 5a3a 8c3d 1046 863d
000003a0: 911f 7b3d 1551 633d 5ca5 453d 7cd0 243d
000003b0: a7e7 063d f0a0 ed3c 933f 063d 1d05 503d
000003c0: 6a39 fc3d 2235 f33d be45 e03d 637b c83d
000003d0: 0351 af3d bb08 973d 8df8 803d 9592 5b3d
000003e0: fd52 3b3d daeb 203d 5bb2 0b3d d98e f53c
000003f0: 7c76 da3c 8d4c c43c be73 b13c 1c94 a03c

GreaterEqual_3/x f4 [336]
0.0 1.0 2.0 3.0 4.0 5.0 6.0 7.0
8.0 9.0 10.0 11.0 12.0 13.0 14.0 15.0
16.0 17.0 18.0 19.0 20.0 21.0 22.0 23.0
24.0 25.0 26.0 27.0 28.0 29.0 30.0 31.0
32.0 33.0 34.0 35.0 36.0 37.0 38.0 39.0
40.0 41.0 42.0 43.0 44.0 45.0 46.0 47.0
48.0 49.0 50.0 51.0 52.0 53.0 54.0 55.0
56.0 57.0 58.0 59.0 60.0 61.0 62.0 63.0
64.0 65.0 66.0 67.0 68.0 69.0 70.0 71.0
72.0 73.0 74.0 75.0 76.0 77.0 78.0 79.0
80.0 81.0 82.0 83.0 84.0 85.0 86.0 87.0
88.0 89.0 90.0 91.0 92.0 93.0 94.0 95.0
96.0 97.0 98.0 99.0 100.0 101.0 102.0 103.0
104.0 105.0 106.0 107.0 108.0 109.0 110.0 111.0
112.0 113.0 114.0 115.0 116.0 117.0 118.0 119.0
120.0 121.0 122.0 123.0 124.0 125.0 126.0 127.0
128.0 129.0 130.0 131.0 132.0 133.0 134.0 135.0
136.0 137.0 138.0 139.0 140.0 141.0 142.0 143.0
144.0 145.0 146.0 147.0 148.0 149.0 150.0 151.0
152.0 153.0 154.0 155.0 156.0 157.0 158.0 159.0
160.0 161.0 162.0 163.0 164.0 165.0 166.0 167.0
168.0 169.0 170.0 171.0 172.0 173.0 174.0 175.0
176.0 177.0 178.0 179.0 180.0 181.0 182.0 183.0
184.0 185.0 186.0 187.0 188.0 189.0 190.0 191.0
192.0 193.0 194.0 195.0 196.0 197.0 198.0 199.0
200.0 201.0 202.0 203.0 204.0 205.0 206.0 207.0
208.0 209.0 210.0 211.0 212.0 213.0 214.0 215.0
216.0 217.0 218.0 219.0 220.0 221.0 222.0 223.0
224.0 225.0 226.0 227.0 228.0 229.0 230.0 231.0
232.0 233.0 234.0 235.0 236.0 237.0 238.0 239.0
240.0 241.0 242.0 243.0 244.0 245.0 246.0 247.0
248.0 249.0 250.0 251.0 252.0 253.0 254.0 255.0
00000000: 0000 0000 0000 803f 0000 0040 0000 4040
00000010: 0000 8040 0000 a040 0000 c040 0000 e040
00000020: 0000 0041 0000 1041 0000 2041 0000 3041
00000030: 0000 4041 0000 5041 0000 6041 0000 7041
00000040: 0000 8041 0000 8841 0000 9041 0000 9841
00000050: 0000 a041 0000 a841 0000 b041 0000 b841
00000060: 0000 c041 0000 c841 0000 d041 0000 d841
00000070: 0000 e041 0000 e841 0000 f041 0000 f841
00000080: 0000 0042 0000 0442 0000 0842 0000 0c42
00000090: 0000 1042 0000 1442 0000 1842 0000 1c42
000000a0: 0000 2042 0000 2442 0000 2842 0000 2c42
000000b0: 0000 3042 0000 3442 0000 3842 0000 3c42
000000c0: 0000 4042 0000 4442 0000 4842 0000 4c42
000000d0: 0000 5042 0000 5442 0000 5842 0000 5c42
000000e0: 0000 6042 0000 6442 0000 6842 0000 6c42
000000f0: 0000 7042 0000 7442 0000 7842 0000 7c42
00000100: 0000 8042 0000 8242 0000 8442 0000 8642
00000110: 0000 8842 0000 8a42 0000 8c42 0000 8e42
00000120: 0000 9042 0000 9242 0000 9442 0000 9642
00000130: 0000 9842 0000 9a42 0000 9c42 0000 9e42
00000140: 0000 a042 0000 a242 0000 a442 0000 a642
00000150: 0000 a842 0000 aa42 0000 ac42 0000 ae42
00000160: 0000 b042 0000 b242 0000 b442 0000 b642
00000170: 0000 b842 0000 ba42 0000 bc42 0000 be42
00000180: 0000 c042 0000 c242 0000 c442 0000 c642
00000190: 0000 c842 0000 ca42 0000 cc42 0000 ce42
000001a0: 0000 d042 0000 d242 0000 d442 0000 d642
000001b0: 0000 d842 0000 da42 0000 dc42 0000 de42
000001c0: 0000 e042 0000 e242 0000 e442 0000 e642
000001d0: 0000 e842 0000 ea42 0000 ec42 0000 ee42
000001e0: 0000 f042 0000 f242 0000 f442 0000 f642
000001f0: 0000 f842 0000 fa42 0000 fc42 0000 fe42
00000200: 0000 0043 0000 0143 0000 0243 0000 0343
00000210: 0000 0443 0000 0543 0000 0643 0000 0743
00000220: 0000 0843 0000 0943 0000 0a43 0000 0b43
00000230: 0000 0c43 0000 0d43 0000 0e43 0000 0f43
00000240: 0000 1043 0000 1143 0000 1243 0000 1343
00000250: 0000 1443 0000 1543 0000 1643 0000 1743
00000260: 0000 1843 0000 1943 0000 1a43 0000 1b43
00000270: 0000 1c43 0000 1d43 0000 1e43 0000 1f43
00000280: 0000 2043 0000 2143 0000 2243 0000 2343
00000290: 0000 2443 0000 2543 0000 2643 0000 2743
000002a0: 0000 2843 0000 2943 0000 2a43 0000 2b43
000002b0: 0000 2c43 0000 2d43 0000 2e43 0000 2f43
000002c0: 0000 3043 0000 3143 0000 3243 0000 3343
000002d0: 0000 3443 0000 3543 0000 3643 0000 3743
000002e0: 0000 3843 0000 3943 0000 3a43 0000 3b43
000002f0: 0000 3c43 0000 3d43 0000 3e43 0000 3f43
00000300: 0000 4043 0000 4143 0000 4243 0000 4343
00000310: 0000 4443 0000 4543 0000 4643 0000 4743
00000320: 0000 4843 0000 4943 0000 4a43 0000 4b43
00000330: 0000 4c43 0000 4d43 0000 4e43 0000 4f43
00000340: 0000 5043 0000 5143 0000 5243 0000 5343
00000350: 0000 5443 0000 5543 0000 5643 0000 5743
00000360: 0000 5843 0000 5943 0000 5a43 0000 5b43
00000370: 0000 5c43 0000 5d43 0000 5e43 0000 5f43
00000380: 0000 6043 0000 6143 0000 6243 0000 6343
00000390: 0000 6443 0000 6543 0000 6643 0000 6743
000003a0: 0000 6843 0000 6943 0000 6a43 0000 6b43
000003b0: 0000 6c43 0000 6d43 0000 6e43 0000 6f43
000003c0: 0000 7043 0000 7143 0000 7243 0000 7343
000003d0: 0000 7443 0000 7543 0000 7643 0000 7743
000003e0: 0000 7843 0000 7943 0000 7a43 0000 7b43
000003f0: 0000 7c43 0000 7d43 0000 7e43 0000 7f43

model/conv1d/BiasAdd/ReadVariableOp/resource f4 [2]
1.8846452 3.757281
00000000: 0e3c f13f 4b77 7040

model/dense/BiasAdd/ReadVariableOp/resource f4 [83]
0.5103905 0.09383382 0.43972975 0.3537232 -0.09003837 0.18889907 0.15720768 0.38233542
0.45545325 -1.1784998e-05 -9.8004544e-05 0.1993581 0.350128 -0.00025344588 0.087113775 0.146649
0.10999679 -0.24495965 -0.011701019 0.070401885 0.05096755 -0.040205903 -0.3311978 0.374042
-7.2825474e-05 0.25471446 -0.06165859 0.21524383 -0.04535119 -0.00017293273 -0.02058982 0.44453225
0.34877026 -0.00010625718 0.082100004 0.33519697 -0.17363195 0.121366434 0.18433402 -1.6502223e-05
-0.14155042 -0.15220968 -8.394025e-06 0.020491725 0.08323256 -2.1433281e-05 0.30612597 -7.924819e-05
0.19250393 0.17862742 0.2643811 -7.366022e-07 0.047164787 0.4082133 0.35341936 0.18091069
0.35023642 0.380548 -0.057062946 -0.14487754 -0.080348425 0.37722018 -0.010986568 -0.033565562
-0.00020742316 0.1869859 0.40723935 0.36622825 -0.07923552 0.33020332 0.32330963 0.42757952
-0.0045191087 -0.10106628 -0.002032667 0.14979152 -0.1424948 0.44559392 -0.04415827 0.0931729
0.23162144 0.1079098 0.49496564
00000000: f4a8 023f f22b c03d 4224 e13e 351b b53e
00000010: 0966 b8bd c26e 413e 0dfb 203e 78c1 c33e
00000020: 2b31 e93e 2eb8 45b7 ca87 cdb8 8824 4c3e
00000030: fa43 b33e eee0 84b9 b568 b23d 282b 163e
00000040: ff45 e13d b4d6 7abe a1b5 3fbc dd2e 903d
00000050: 5ac3 503d f2ae 24bd c292 a9be 6f82 bf3e
00000060: e1b9 98b8 ef69 823e b88d 7cbd e168 5c3e
00000070: 2bc2 39bd 4755 35b9 fbab a8bc bb99 e33e
00000080: 0492 b23e 64d6 deb8 0c24 a83d f09e ab3e
00000090: 93cc 31be f78e f83d 0fc2 3c3e 416e 8ab7
000000a0: 98f2 10be dbdc 1bbe 10d4 0cb7 43de a73c
000000b0: d575 aa3d 9fcb b3b7 8bbc 9c3e 0c32 a6b8
000000c0: c01f 453e 1bea 363e f65c 873e ebba 45b5
000000d0: dd2f 413d 5501 d13e 62f3 b43e a740 393e
000000e0: 3052 b33e 30d7 c23e d6ba 69bd c75a 14be
000000f0: b78d a4bd 0123 c13e 0201 34bc 0b7c 09bd
00000100: bb7f 59b9 3b79 3f3e ad81 d03e 4582 bb3e
00000110: 3b46 a2bd 6910 a93e d788 a53e b4eb da3e
00000120: 0815 94bb d6fb cebd 7e36 05bb f362 193e
00000130: 28ea 11be e324 e43e 4ddf 34bd 6fd1 be3d
00000140: 2c2e 6d3e d0ff dc3d 236c fd3e

model/dense_1/BiasAdd/ReadVariableOp/resource f4 [41]
0.2364977 0.053636417 0.06273245 -0.278432 0.13095744 0.13932824 0.14659482 0.1693045
0.1255957 0.14705513 0.08230788 -4.5910055e-12 0.02616973 -0.015028575 0.23043768 0.123306334
0.039554846 0.044921875 0.24807623 -0.0005835404 0.12703343 0.17860778 0.23916684 -2.63778e-07
0.13870874 -0.29319823 0.16103518 -6.7494144e-10 -2.5692824e-08 -0.38742867 0.17405139 0.30537683
0.1151914 -0.037661053 0.072570615 0.16720001 0.15657018 0.15613732 -0.2335806 0.10028768
0.23238455
00000000: 742c 723e dcb1 5b3d df79 803d a48e 8ebe
00000010: b519 063e 10ac 0e3e f41c 163e 295e 2d3e
00000020: 299c 003e 9f95 163e 0991 a83d 1a88 a1ac
00000030: e761 d63c 6a3a 76bc dbf7 6b3e 0888 fc3d
00000040: 4304 223d 0000 383d b207 7e3e bcf8 18ba
00000050: 0d15 023e f5e4 363e 27e8 743e 5f9d 8db4
00000060: aa09 0e3e 141e 96be 68e6 243e c886 39b0
00000070: 1eb3 dcb2 0d5d c6be 873a 323e 5a5a 9c3e
00000080: 78e9 eb3d 7a42 1abd e79f 943d 7b36 2b3e
00000090: ef53 203e 76e2 1f3e c12f 6fbe a163 cd3d
000000a0: 37f6 6d3e

model/dense_2/BiasAdd/ReadVariableOp/resource f4 [41]
0.07751679 -0.047829315 0.1778267 0.0844077 0.100964025 -0.021136263 -0.0032699555 -0.04887946
0.19659103 0.036140475 0.067598574 -0.14422417 -0.077756085 -0.071471184 0.08610408 0.12836929
-0.06413922 -0.035752736 0.031678997 0.03580116 -0.03712591 -0.037055064 -0.050382257 0.08389485
0.0955274 0.094637245 0.02175439 0.21657379 -0.14306977 0.22564116 -0.12325397 0.20878388
-0.012254992 0.14755155 0.11021045 0.2506415 -0.14339592 0.00013954837 0.09994729 0.13540426
-0.08349158
00000000: 1fc1 9e3d ace8 43bd 3418 363e f2dd ac3d
00000010: 3ac6 ce3d f525 adbc c04c 56bb d435 48bd
00000020: 294f 493e 0908 143d 1f71 8a3d 80af 13be
00000030: 953e 9fbd 7c5f 92bd 5657 b03d 3d73 033e
00000040: 6c5b 83bd 7671 12bd d6c1 013d 3da4 123d
00000050: 5711 18bd 0dc7 17bd a05d 4ebd 10d1 ab3d
00000060: dfa3 c33d 2cd1 c13d 4336 b23c 85c5 5d3e
00000070: e280 12be 7a0e 673e 946c fcbd 71cb 553e
00000080: 29c9 48bc c117 173e 04b6 e13d 1554 803e
00000090: 61d6 12be bb53 1239 2ab1 cc3d 6aa7 0a3e
000000a0: a2fd aabd

model/dense_3/BiasAdd/ReadVariableOp/resource f4 [83]
0.05040638 -0.026610626 0.0697439 0.017705757 0.064636275 -0.12899874 -0.02470645 0.112038724
-0.02818739 -0.09798113 0.02166626 0.04860778 0.058123738 -0.11588337 -0.16109292 -0.11333557
0.07306742 0.08038039 -0.052188154 0.08910558 -0.10584234 -0.05761736 0.03804295 0.063196674
-0.035149638 0.017541785 -0.028803926 -0.007542763 -0.11551593 -0.06950357 0.053102836 0.07278221
-0.04850006 0.021959126 0.08027521 -1.4332267e-08 0.05583122 0.109846026 -0.14802384 0.051918235
0.009882377 -0.11577018 0.012421074 0.07492505 0.080333665 0.092612386 0.14965089 0.06690851
0.03267126 -0.03287186 -0.008674849 -0.006983484 0.13340025 -0.008535743 -0.16380365 0.048490435
-0.04379911 0.035080537 -0.040830787 0.063197985 -0.025038553 -0.05864864 -0.010848067 0.115746476
-0.054061014 0.13948017 -0.031354688 -0.101878434 0.13677497 0.01363506 -0.036182478 0.049813803
0.061368782 -0.02381863 0.07775888 -0.0202687 0.20262808 -0.2087473 0.032379523 0.06973331
-0.081098475 -0.058152262 -0.00898078
00000000: ec76 4e3d 87fe d9bc e4d5 8e3d aa0b 913c
00000010: 0660 843d 3f18 04be 2e65 cabc 8f74 e53d
00000020: 3ee9 e6bc 55aa c8bd 717d b13c f418 473d
00000030: 2813 6e3d 4354 edbd 8bf5 24be 7b1c e8bd
00000040: 5fa4 953d 799e a43d 3fc3 55bd fc7c b63d
00000050: dec3 d8bd 2e00 6cbd edd2 1b3d 426d 813d
00000060: 11f9 0fbd cab3 8f3c 36f6 ebbc 4829 f7bb
00000070: 9e93 ecbd e357 8ebd 5c82 593d d70e 953d
00000080: 00a8 46bd a0e3 b33c 5467 a43d fa39 76b2
00000090: 47af 643d f4f6 e03d 9093 17be 37a8 543d
000000a0: b2e9 213c eb18 edbd c381 4b3c 4e72 993d
000000b0: fa85 a43d 90ab bd3d 153e 193e 5407 893d
000000c0: 4dd2 053d a5a4 06bd f420 0ebc b6d5 e4bb
000000d0: 139a 083e 80d9 0bbc 25bc 27be e89d 463d
000000e0: b266 33bd 9cb0 0f3d 2f3e 27bd f26d 813d
000000f0: a71d cdbc 8e39 70bd 17bc 31bc 7d0c ed3d
00000100: 156f 5dbd e4d3 0e3e c66d 00bd a4a5 d0bd
00000110: bd0e 0c3e 9665 5f3c 1434 14bd 8f09 4c3d
00000120: d55d 7b3d 4a1f c3bc 0c40 9f3d 8b0a a6bc
00000130: bc7d 4f3e dac1 55be 64a0 043d 56d0 8e3d
00000140: f516 a6bd 1131 6ebd 1f24 13bc

model/dense_4/BiasAdd/ReadVariableOp/resource f4 [41]
0.0679408 -0.01689573 0.101580635 0.08843511 0.10758513 0.013639672 0.18204902 0.10448235
0.16451164 0.23579061 0.07227186 0.047591075 0.0045821927 0.040679812 0.15272889 -0.027682781
-0.00038792694 0.19131745 0.04475035 -0.03636035 0.12682007 0.14204031 0.09714807 0.06089998
0.07288254 0.01430123 0.11717103 -0.018133655 0.065037675 0.0821256 -0.020224735 0.19073892
0.08868588 0.23773018 0.114622526 0.13279833 0.09043948 0.010869909 0.20312968 -0.010009809
0.096881956
00000000: 8c24 8b3d ea68 8abc 8209 d03d 781d b53d
00000010: 9855 dc3d ee78 5f3c 0f6b 3a3e d8fa d53d
00000020: bd75 283e 1873 713e 4503 943d dcee 423d
00000030: 3826 963b e09f 263d f664 1c3e 00c7 e2bc
00000040: ac62 cbb9 b9e8 433e 254c 373d 97ee 14bd
00000050: 1fdd 013e 0473 113e 91f5 c63d 4272 793d
00000060: 7143 953d b54f 6a3c 5df7 ef3d 088d 94bc
00000070: 7932 853d 7731 a83d 58ae a5bc 1051 433e
00000080: f1a0 b53d 8a6f 733e 37bf ea3d 49fc 073e
00000090: 5638 b93d b417 323c 3a01 503e 2f00 24bc
000000a0: 0c6a c63d

model/dense_5/BiasAdd/ReadVariableOp/resource f4 [27]
-0.048789464 -0.04077824 0.2568339 -0.05575629 -0.07531042 -0.066341974 0.017698973 0.06945011
-0.123006575 -0.07937966 -0.026103461 0.059906684 0.13143562 0.032207135 -0.3645372 0.1404302
-0.0301718 0.102239855 0.013078118 0.1492058 0.010385258 -0.09942231 -0.0042437096 0.15123181
0.061844487 -0.31842002 0.20604834
00000000: 76d7 47bd 1507 27bd bc7f 833e b560 64bd
00000010: 593c 9abd 4dde 87bd 70fd 903c dc3b 8e3d
00000020: dfea fbbd ce91 a2bd edd6 d5bc b660 753d
00000030: 0f97 063e a1eb 033d 9fa4 babe efcc 0f3e
00000040: da2a f7bc 2163 d13d 9a45 563c 68c9 183e
00000050: ee26 2a3c ed9d cbbd d10e 8bbb 83dc 1a3e
00000060: a550 7d3d f307 a3be 56fe 523e

mul_1/y f4 [2568]
0.0 0.0 0.0 0.0 0.0 0.0 0.0 0.0
0.0 0.0 0.0 0.0 0.0 0.0 0.0 0.0
0.0 0.0 0.0 0.0 0.0 0.0 0.0 0.0
0.0 0.0 0.0 0.0 0.0 0.0 0.0 0.0
0.0 0.0 0.0 0.0 0.0 0.0 0.0 0.0
0.0 0.0 0.0 0.0 0.0 0.0 0.0 0.0
0.0 0.0 0.0 0.0 0.0 0.0 0.0 0.0
0.0 0.0 0.0 0.0 0.0 0.0 0.0 0.0
0.0 0.0 0.0 0.0 0.0 0.0 0.0 0.0
0.0 0.0 0.0 0.0 0.0 0.0 0.0 0.0
0.0 0.0 0.0 0.0 0.0 0.0 0.0 0.0
0.0 0.0 0.0 0.0 0.0 0.0 0.0 0.0
0.0 0.0 0.0 0.0 0.0 0.0 0.0 0.0
0.0 0.0 0.0 0.0 0.0 0.0 0.0 0.0
0.0 0.0 0.0 0.0 0.0 0.0 0.0 0.0
0.0 0.0 0.0 0.0 0.0 0.0 0.0 0.0
0.0 0.0 0.0 0.0 0.0 0.0 0.0 0.0
0.0 0.0 0.0 0.0 0.0 0.0 0.0 0.0
0.0 0.0 0.0 0.0 0.0 0.0 0.0 0.0
0.0 0.0 0.0 0.0 0.0 0.0 0.0 0.0
0.0 0.0 0.0 0.0 0.0 0.0 0.0 0.0
0.0 0.0 0.0 0.0 0.0 0.0 0.0 0.0
0.0 0.0 0.0 0.0 0.0 0.0 0.0 0.0
0.0 0.0 0.0 0.0 0.0 0.0 0.0 0.0
0.0 0.0 0.0 0.0 0.0 0.0 0.0 0.0
0.0 0.0 0.0 0.0 0.0 0.0 0.0 0.0
0.0 0.0 0.0 0.0 0.0 0.0 0.0 0.0
0.0 0.0 0.0 0.0 0.0 0.0 0.0 0.0
0.0 0.0 0.0 0.0 0.0 0.0 0.0 0.0
0.0 0.0 0.0 0.0 0.0 0.0 0.0 0.0
0.0 0.0 0.0 0.0 0.0 0.0 0.0 0.0
0.0 0.0 0.0 0.0 0.0 0.0 0.0 0.0
00000000: 0000 0000 0000 0000 0000 0000 0000 0000
00000010: 0000 0000 0000 0000 0000 0000 0000 0000
00000020: 0000 0000 0000 0000 0000 0000 0000 0000
00000030: 0000 0000 0000 0000 0000 0000 0000 0000
00000040: 0000 0000 0000 0000 0000 0000 0000 0000
00000050: 0000 0000 0000 0000 0000 0000 0000 0000
00000060: 0000 0000 0000 0000 0000 0000 0000 0000
00000070: 0000 0000 0000 0000 0000 0000 0000 0000
00000080: 0000 0000 0000 0000 0000 0000 0000 0000
00000090: 0000 0000 0000 0000 0000 0000 0000 0000
000000a0: 0000 0000 0000 0000 0000 0000 0000 0000
000000b0: 0000 0000 0000 0000 0000 0000 0000 0000
000000c0: 0000 0000 0000 0000 0000 0000 0000 0000
000000d0: 0000 0000 0000 0000 0000 0000 0000 0000
000000e0: 0000 0000 0000 0000 0000 0000 0000 0000
000000f0: 0000 0000 0000 0000 0000 0000 0000 0000
00000100: 0000 0000 0000 0000 0000 0000 0000 0000
00000110: 0000 0000 0000 0000 0000 0000 0000 0000
00000120: 0000 0000 0000 0000 0000 0000 0000 0000
00000130: 0000 0000 0000 0000 0000 0000 0000 0000
00000140: 0000 0000 0000 0000 0000 0000 0000 0000
00000150: 0000 0000 0000 0000 0000 0000 0000 0000
00000160: 0000 0000 0000 0000 0000 0000 0000 0000
00000170: 0000 0000 0000 0000 0000 0000 0000 0000
00000180: 0000 0000 0000 0000 0000 0000 0000 0000
00000190: 0000 0000 0000 0000 0000 0000 0000 0000
000001a0: 0000 0000 0000 0000 0000 0000 0000 0000
000001b0: 0000 0000 0000 0000 0000 0000 0000 0000
000001c0: 0000 0000 0000 0000 0000 0000 0000 0000
000001d0: 0000 0000 0000 0000 0000 0000 0000 0000
000001e0: 0000 0000 0000 0000 0000 0000 0000 0000
000001f0: 0000 0000 0000 0000 0000 0000 0000 0000
00000200: 0000 0000 0000 0000 0000 0000 0000 0000
00000210: 0000 0000 0000 0000 0000 0000 0000 0000
00000220: 0000 0000 0000 0000 0000 0000 0000 0000
00000230: 0000 0000 0000 0000 0000 0000 0000 0000
00000240: 0000 0000 0000 0000 0000 0000 0000 0000
00000250: 0000 0000 0000 0000 0000 0000 0000 0000
00000260: 0000 0000 0000 0000 0000 0000 0000 0000
00000270: 0000 0000 0000 0000 0000 0000 0000 0000
00000280: 0000 0000 0000 0000 0000 0000 0000 0000
00000290: 0000 0000 0000 0000 0000 0000 0000 0000
000002a0: 0000 0000 0000 0000 0000 0000 0000 0000
000002b0: 0000 0000 0000 0000 0000 0000 0000 0000
000002c0: 0000 0000 0000 0000 0000 0000 0000 0000
000002d0: 0000 0000 0000 0000 0000 0000 0000 0000
000002e0: 0000 0000 0000 0000 0000 0000 0000 0000
000002f0: 0000 0000 0000 0000 0000 0000 0000 0000
00000300: 0000 0000 0000 0000 0000 0000 0000 0000
00000310: 0000 0000 0000 0000 0000 0000 0000 0000
00000320: 0000 0000 0000 0000 0000 0000 0000 0000
00000330: 0000 0000 0000 0000 0000 0000 0000 0000
00000340: 0000 0000 0000 0000 0000 0000 0000 0000
00000350: 0000 0000 0000 0000 0000 0000 0000 0000
00000360: 0000 0000 0000 0000 0000 0000 0000 0000
00000370: 0000 0000 0000 0000 0000 0000 0000 0000
00000380: 0000 0000 0000 0000 0000 0000 0000 0000
00000390: 0000 0000 0000 0000 0000 0000 0000 0000
000003a0: 0000 0000 0000 0000 0000 0000 0000 0000
000003b0: 0000 0000 0000 0000 0000 0000 0000 0000
000003c0: 0000 0000 0000 0000 0000 0000 0000 0000
000003d0: 0000 0000 0000 0000 0000 0000 0000 0000
000003e0: 0000 0000 0000 0000 0000 0000 0000 0000
000003f0: 0000 0000 0000 0000 0000 0000 0000 0000

sequential/conv2d/BiasAdd/ReadVariableOp/resource f4 [32]
0.039099988 -0.00011489791 0.045948934 -0.0074669933 0.065622784 0.07028741 -0.003586624 -0.0013861896
0.06720263 0.04813254 -0.0020159306 -0.0015537391 -0.0018642962 0.055484824 -0.048398793 0.054109715
0.06911687 0.061107147 -0.0012179973 0.05740264 0.0003331138 0.055354994 -0.020096825 -0.003664169
0.054694623 0.063826725 0.013336957 -0.008590232 -0.015211757 -0.00080767635 0.019866845 0.05166939
00000000: 4f27 203d 59f5 f0b8 f334 3c3d aead f4bb
00000010: 3d65 863d d8f2 8f3d 910d 6bbb ceb0 b5ba
00000020: 88a1 893d a026 453d b41d 04bb d5a6 cbba
00000030: 665b f4ba 0e44 633d d03d 46bd 26a2 5d3d
00000040: 258d 8d3d 7d4b 7a3d 35a5 9fba 081f 6b3d
00000050: c7a5 ae39 ebbb 623d 19a2 a4bc 8e22 70bb
00000060: 7807 603d 96b7 823d 4183 5a3c 0bbe 0cbc
00000070: bc3a 79bc 3eba 53ba cbbf a23c 48a3 533d

sequential/conv2d_1/BiasAdd/ReadVariableOp/resource f4 [16]
-0.043322846 -0.013217702 -0.080382645 0.07467687 0.024542987 -0.015186585 0.06286515 0.008923565
0.06330722 -0.023168406 -0.05204836 -0.020058757 -0.02398711 0.06617298 -0.0053210324 0.06836344
00000000: 4c73 31bd 0f8f 58bc a89f a4bd 30f0 983d
00000010: 600e c93c 27d1 78bc 72bf 803d 2534 123c
00000020: 37a7 813d abcb bdbc a930 55bd 4352 a4bc
00000030: 9e80 c4bc b385 873d 0e5c aebb 2202 8c3d

sequential/conv2d_2/BiasAdd/ReadVariableOp/resource f4 [16]
0.059102107 -0.017181287 0.08413592 0.039076276 -0.034069043 0.05699409 -0.016349366 0.11896134
0.062194068 0.07857874 0.06788609 -0.044807244 -0.07786651 0.058470465 -0.017618118 -0.05793344
00000000: 0d15 723d c5bf 8cbc 744f ac3d 720e 203d
00000010: fb8b 0bbd a372 693d 1bef 85bc 01a2 f33d
00000020: 35bf 7e3d e4ed a03d dd07 8b3d cd87 37bd
00000030: 7a78 9fbd ba7e 6f3d df53 90bc 9d4b 6dbd

sequential/conv2d_3/BiasAdd/ReadVariableOp/resource f4 [16]
-0.06415971 -0.05467713 0.06486625 -0.044455975 0.030755622 0.051821526 0.012997947 -0.008943052
-0.043661058 0.081169836 -0.035215434 -0.001813364 0.063149616 -0.030976072 0.047091667 0.06190306
00000000: 2b66 83bd 20f5 5fbd 99d8 843d 7817 36bd
00000010: 37f3 fb3c cf42 543d 57f5 543c e185 12bc
00000020: f0d5 32bd 5f3c a63d 0f3e 10bd 66ae edba
00000030: 9654 813d 88c1 fdbc 31e3 403d 108e 7d3d

sequential/dense/BiasAdd/ReadVariableOp/resource f4 [8]
-0.07921282 0.045625232 -0.05279011 0.069713406 0.07985985 0.05888981 0.04225331 0.076506324
00000000: 553a a2bd 86e1 3a3d 713a 58bd e7c5 8e3d
00000010: 908d a33d 7136 713d cf11 2d3d 59af 9c3d

sequential/dense_1/BiasAdd/ReadVariableOp/resource f4 [3]
0.11631506 -0.26421627 0.14684328
00000000: 9736 ee3d 5b47 87be 165e 163e

zeros_like f4 [7, 24]
0.0 0.0 0.0 0.0 0.0 0.0 0.0 0.0
0.0 0.0 0.0 0.0 0.0 0.0 0.0 0.0
0.0 0.0 0.0 0.0 0.0 0.0 0.0 0.0
0.0 0.0 0.0 0.0 0.0 0.0 0.0 0.0
0.0 0.0 0.0 0.0 0.0 0.0 0.0 0.0
0.0 0.0 0.0 0.0 0.0 0.0 0.0 0.0
0.0 0.0 0.0 0.0 0.0 0.0 0.0 0.0
0.0 0.0 0.0 0.0 0.0 0.0 0.0 0.0
0.0 0.0 0.0 0.0 0.0 0.0 0.0 0.0
0.0 0.0 0.0 0.0 0.0 0.0 0.0 0.0
0.0 0.0 0.0 0.0 0.0 0.0 0.0 0.0
0.0 0.0 0.0 0.0 0.0 0.0 0.0 0.0
0.0 0.0 0.0 0.0 0.0 0.0 0.0 0.0
0.0 0.0 0.0 0.0 0.0 0.0 0.0 0.0
0.0 0.0 0.0 0.0 0.0 0.0 0.0 0.0
0.0 0.0 0.0 0.0 0.0 0.0 0.0 0.0
0.0 0.0 0.0 0.0 0.0 0.0 0.0 0.0
0.0 0.0 0.0 0.0 0.0 0.0 0.0 0.0
0.0 0.0 0.0 0.0 0.0 0.0 0.0 0.0
0.0 0.0 0.0 0.0 0.0 0.0 0.0 0.0
0.0 0.0 0.0 0.0 0.0 0.0 0.0 0.0
00000000: 0000 0000 0000 0000 0000 0000 0000 0000
00000010: 0000 0000 0000 0000 0000 0000 0000 0000
00000020: 0000 0000 0000 0000 0000 0000 0000 0000
00000030: 0000 0000 0000 0000 0000 0000 0000 0000
00000040: 0000 0000 0000 0000 0000 0000 0000 0000
00000050: 0000 0000 0000 0000 0000 0000 0000 0000
00000060: 0000 0000 0000 0000 0000 0000 0000 0000
00000070: 0000 0000 0000 0000 0000 0000 0000 0000
00000080: 0000 0000 0000 0000 0000 0000 0000 0000
00000090: 0000 0000 0000 0000 0000 0000 0000 0000
000000a0: 0000 0000 0000 0000 0000 0000 0000 0000
000000b0: 0000 0000 0000 0000 0000 0000 0000 0000
000000c0: 0000 0000 0000 0000 0000 0000 0000 0000
000000d0: 0000 0000 0000 0000 0000 0000 0000 0000
000000e0: 0000 0000 0000 0000 0000 0000 0000 0000
000000f0: 0000 0000 0000 0000 0000 0000 0000 0000
00000100: 0000 0000 0000 0000 0000 0000 0000 0000
00000110: 0000 0000 0000 0000 0000 0000 0000 0000
00000120: 0000 0000 0000 0000 0000 0000 0000 0000
00000130: 0000 0000 0000 0000 0000 0000 0000 0000
00000140: 0000 0000 0000 0000 0000 0000 0000 0000
00000150: 0000 0000 0000 0000 0000 0000 0000 0000
00000160: 0000 0000 0000 0000 0000 0000 0000 0000
00000170: 0000 0000 0000 0000 0000 0000 0000 0000
00000180: 0000 0000 0000 0000 0000 0000 0000 0000
00000190: 0000 0000 0000 0000 0000 0000 0000 0000
000001a0: 0000 0000 0000 0000 0000 0000 0000 0000
000001b0: 0000 0000 0000 0000 0000 0000 0000 0000
000001c0: 0000 0000 0000 0000 0000 0000 0000 0000
000001d0: 0000 0000 0000 0000 0000 0000 0000 0000
000001e0: 0000 0000 0000 0000 0000 0000 0000 0000
000001f0: 0000 0000 0000 0000 0000 0000 0000 0000
00000200: 0000 0000 0000 0000 0000 0000 0000 0000
00000210: 0000 0000 0000 0000 0000 0000 0000 0000
00000220: 0000 0000 0000 0000 0000 0000 0000 0000
00000230: 0000 0000 0000 0000 0000 0000 0000 0000
00000240: 0000 0000 0000 0000 0000 0000 0000 0000
00000250: 0000 0000 0000 0000 0000 0000 0000 0000
00000260: 0000 0000 0000 0000 0000 0000 0000 0000
00000270: 0000 0000 0000 0000 0000 0000 0000 0000
00000280: 0000 0000 0000 0000 0000 0000 0000 0000
00000290: 0000 0000 0000 0000 0000 0000 0000 0000

GatherV2_1 f4 [27, 720]
0.6768526 0.68965036 0.70196176 0.7138401 0.72533214 0.7364782 0.74731326 0.75786716
0.7681649 0.7782273 0.78807163 0.79771143 0.8071572 0.8164168 0.82549554 0.8343966
0.8431213 0.8516692 0.8600386 0.8682263 0.87622845 0.88404 0.89165545 0.89906865
0.9062731 0.91326195 0.92002827 0.926565 0.9328651 0.93892163 0.94472796 0.9502775
0.9555641 0.96058184 0.9653253 0.96978945 0.97396964 0.97786176 0.98146224 0.9847679
0.9877762 0.99048513 0.992893 0.99499893 0.9968024 0.9983034 0.99950266 1.0004011
1.0010003 1.0013024 1.0013096 1.0010252 1.0004524 0.999595 0.9984571 0.99704325
0.9953584 0.99340767 0.9911966 0.98873097 0.9860168 0.9830604 0.97986835 0.9764472
0.972804 0.9689456 0.96487933 0.96061236 0.9561521 0.9515059 0.9466814 0.9416861
0.93652755 0.93121326 0.9257509 0.92014796 0.9144119 0.90855014 0.9025701 0.8964791
0.89028436 0.88399285 0.87761164 0.8711476 0.8646074 0.8579977 0.8513249 0.84459543
0.8378153 0.8309905 0.82412684 0.81723 0.81030536 0.80335826 0.7963938 0.78941685
0.78243214 0.7754442 0.7684574 0.7614759 0.7545037 0.7475445 0.740602 0.7336796
0.7267805 0.7199077 0.71306425 0.7062527 0.69947565 0.69273543 0.6860343 0.6793743
0.6727572 0.6661849 0.65965885 0.65318054 0.6467513 0.6403722 0.6340444 0.6277687
0.6215459 0.6153767 0.60926163 0.6032012 0.59719574 0.5912455 0.5853505 0.57951105
0.573727 0.56799835 0.5623249 0.55670637 0.5511425 0.545633 0.54017746 0.5347754
0.52942634 0.5241297 0.5188849 0.5136914 0.5085485 0.5034556 0.4984119 0.49341676
0.48846942 0.4835692 0.47871527 0.47390693 0.4691434 0.4644239 0.45974764 0.45511392
0.45052195 0.44597098 0.44146025 0.43698904 0.43255663 0.42816234 0.42380545 0.41948524
0.41520116 0.41095245 0.40673858 0.40255892 0.39841288 0.39429992 0.3902195 0.3861711
0.38215423 0.37816843 0.37421325 0.37028828 0.3663931 0.36252734 0.35869068 0.35488275
0.35110325 0.34735194 0.34362847 0.33993268 0.33626428 0.33262312 0.329009 0.32542172
0.32186118 0.3183272 0.3148197 0.31133854 0.3078837 0.30445504 0.30105254 0.29767615
0.2943258 0.29100147 0.28770316 0.28443086 0.28118455 0.27796426 0.27477 0.27160174
0.2684595 0.26534334 0.26225328 0.25918934 0.2561515 0.25313985 0.25015435 0.24719508
0.24426201 0.2413552 0.23847462 0.2356203 0.23279226 0.22999047 0.22721492 0.22446561
0.22174251 0.2190456 0.21637481 0.21373016 0.21111153 0.20851889 0.20595217 0.20341128
0.20089613 0.19840662 0.19594264 0.1935041 0.19109082 0.1887027 0.18633959 0.18400131
0.18168771 0.17939861 0.17713383 0.17489316 0.1726764 0.17048334 0.16831376 0.16616742
0.1640441 0.16194354 0.1598655 0.15780969 0.15577587 0.15376376 0.15177308 0.14980353
0.14785485 0.14592673 0.14401886 0.14213096 0.1402627 0.13841377 0.1365839 0.13477273
00000000: 3646 2d3f ed8c 303f c4b3 333f 3abe 363f
00000010: 5eaf 393f d689 3c3f ec4f 3f3f 9503 423f
00000020: 74a6 443f e839 473f 10bf 493f d136 4c3f
00000030: dba1 4e3f b100 513f ad53 533f 049b 553f
00000040: ccd6 573f fe06 5a3f 7d2b 5c3f 1444 5e3f
00000050: 8250 603f 7250 623f 8843 643f 5d29 663f
00000060: 8401 683f 89cb 693f f986 6b3f 5d33 6d3f
00000070: 3fd0 6e3f 2b5d 703f b1d9 713f 6345 733f
00000080: d99f 743f b1e8 753f 8f1f 773f 1f44 783f
00000090: 1356 793f 2655 7a3f 1c41 7b3f c019 7c3f
000000a0: e7de 7c3f 6f90 7d3f 3c2e 7e3f 40b8 7e3f
000000b0: 712e 7f3f d090 7f3f 68df 7f3f 250d 803f
000000c0: c720 803f ad2a 803f ea2a 803f 9821 803f
000000d0: d30e 803f 75e5 7f3f e29a 7f3f 3a3e 7f3f
000000e0: cfcf 7e3f f74f 7e3f 0fbf 7d3f 791d 7d3f
000000f0: 996b 7c3f d9a9 7b3f a7d8 7a3f 72f8 793f
00000100: af09 793f d20c 783f 5502 773f b1ea 753f
00000110: 62c6 743f e495 733f b659 723f 5712 713f
00000120: 45c0 6f3f fe63 6e3f 03fe 6c3f d18e 6b3f
00000130: e616 6a3f be96 683f d60e 673f a87f 653f
00000140: ade9 633f 5b4d 623f 28ab 603f 8703 5f3f
00000150: e956 5d3f bda5 5b3f 6ef0 593f 6837 583f
00000160: 107b 563f cbbb 543f faf9 523f fc35 513f
00000170: 2c70 4f3f e3a8 4d3f 77e0 4b3f 3917 4a3f
00000180: 794d 483f 8383 463f a0b9 443f 16f0 423f
00000190: 2827 413f 145f 3f3f 1898 3d3f 6dd2 3b3f
000001a0: 490e 3a3f df4b 383f 618b 363f facc 343f
000001b0: d610 333f 1c57 313f f29f 2f3f 79eb 2d3f
000001c0: d139 2c3f 188b 2a3f 67df 283f d736 273f
000001d0: 7e91 253f 6fef 233f bc50 223f 73b5 203f
000001e0: a21d 1f3f 5489 1d3f 92f8 1b3f 656b 1a3f
000001f0: d2e1 183f dd5b 173f 88d9 153f d65a 143f
00000200: c6df 123f 5768 113f 86f4 0f3f 4f84 0e3f
00000210: ad17 0d3f 9bae 0b3f 1249 0a3f 0ae7 083f
00000220: 7c88 073f 5d2d 063f a4d5 043f 4881 033f
00000230: 3c30 023f 77e2 003f d82f ff3e 1fa1 fc3e
00000240: aa18 fa3e 6296 f73e 2b1a f53e eea3 f23e
00000250: 9033 f03e f8c8 ed3e 0b64 eb3e b104 e93e
00000260: d0aa e63e 4f56 e43e 1407 e23e 07bd df3e
00000270: 1078 dd3e 1838 db3e 07fd d83e c5c6 d63e
00000280: 3f95 d43e 5c68 d23e 0a40 d03e 341c ce3e
00000290: c6fc cb3e aee1 c93e daca c73e 38b8 c53e
000002a0: b8a9 c33e 4b9f c13e e198 bf3e 6d96 bd3e
000002b0: e097 bb3e 2f9d b93e 4ea6 b73e 31b3 b53e
000002c0: cec3 b33e 1dd8 b13e 12f0 af3e a80b ae3e
000002d0: d52a ac3e 944d aa3e de73 a83e ad9d a63e
000002e0: fdca a43e c8fb a23e 0c30 a13e c467 9f3e
000002f0: efa2 9d3e 88e1 9b3e 8f23 9a3e 0269 983e
00000300: dfb1 963e 25fe 943e d44d 933e eca0 913e
00000310: 6cf7 8f3e 5551 8e3e a7ae 8c3e 620f 8b3e
00000320: 8673 893e 15db 873e 1046 863e 77b4 843e
00000330: 4a26 833e 8c9b 813e 3b14 803e b520 7d3e
00000340: d21f 7a3e d125 773e b132 743e 7346 713e
00000350: 1861 6e3e 9f82 6b3e 07ab 683e 50da 653e
00000360: 7810 633e 7d4d 603e 5c91 5d3e 14dc 5a3e
00000370: 9f2d 583e fa85 553e 20e5 523e 0c4b 503e
00000380: b7b7 4d3e 1b2b 4b3e 30a5 483e f025 463e
00000390: 50ad 433e 483b 413e cecf 3e3e d76a 3c3e
000003a0: 580c 3a3e 45b4 373e 9262 353e 3117 333e
000003b0: 15d2 303e 2f93 2e3e 715a 2c3e cb27 2a3e
000003c0: 2dfb 273e 87d4 253e c8b3 233e dd98 213e
000003d0: b683 1f3e 3f74 1d3e 676a 1b3e 1966 193e
000003e0: 4367 173e d16d 153e ae79 133e c78a 113e
000003f0: 06a1 0f3e 57bc 0d3e a6dc 0b3e dd01 0a3e

model/dense/MatMul f4 [83, 58]
0.0020967089 -0.029471125 0.010720697 0.00061037915 0.02306972 0.009385727 -0.020687494 -0.04398951
-0.031949088 -0.021790512 0.01457906 0.01457906 0.0037911958 0.01457906 0.01457906 0.014579063
-0.021790512 0.014579063 0.022852335 -0.040529814 -0.040529814 -0.00085268484 -0.00085268484 0.009630398
0.009630398 0.022824692 0.022824692 0.022824692 0.022824692 0.022824692 0.022824692 0.012703746
0.042287096 -0.041896176 -0.06447162 0.022338778 -0.029541658 0.0081333965 0.0081333965 0.04054816
0.0081333965 0.0081333965 0.0081333965 -0.029541658 0.0081333965 0.06754127 -0.015977543 -0.041896176
-0.015442716 -0.047052987 0.012821036 0.012821036 -0.06447162 -0.020940702 -0.06447162 0.03699309
-0.015639052 -0.06447162 0.22002283 0.01050233 0.04718884 -0.0012968109 0.026370004 0.050894782
-0.004624276 -0.021672996 -0.013144131 0.0014377718 0.033031445 0.033031464 0.011264742 0.033031452
0.033031452 0.033031464 0.0014377724 0.03303146 0.020583147 0.010758726 0.010758726 0.013968666
0.013968666 0.008252105 0.008252105 0.0064224484 0.0064224484 0.0064224484 0.0064224484 0.0064224484
0.0064224484 -0.06333927 -0.108817846 -0.015335596 -0.008445282 -0.07282255 -0.028814547 -0.056569923
-0.05656985 -0.11697963 -0.05656967 -0.056569714 -0.056569915 -0.02881571 -0.056569804 -0.12805803
-0.037011325 -0.015340181 -0.036029138 -0.016524797 -0.06682239 -0.066822395 -0.008423126 -0.034559716
-0.008448324 -0.045567524 -0.036507115 -0.008448309 -0.010584796 0.008843194 -0.024413275 0.0056280624
-0.018258696 -0.05024791 0.013339015 0.056365937 0.036146883 0.019626254 -0.02185462 -0.02185462
-0.03551933 -0.02185462 -0.02185462 -0.02185462 0.019626252 -0.02185462 -0.022518577 -0.007520436
-0.007520436 -0.0011222208 -0.0011222208 -0.0151516935 -0.0151516935 -0.0002200088 -0.0002200088 -0.0002200088
-0.0002200088 -0.0002200082 -0.0002200088 -0.013295658 -0.04238907 0.029947182 0.049004357 -0.03267079
0.022904618 -0.021038886 -0.021038886 -0.036364038 -0.021038886 -0.021038886 -0.021038886 0.022904618
-0.021038886 -0.0523964 0.0059939926 0.029947182 0.009930093 0.033992443 -0.018966405 -0.018966405
0.049004357 0.025972048 0.049004357 -0.033935416 0.008773658 0.049004357 0.07400035 -1.2772523e-05
-0.039604418 -0.003060229 -0.0049738213 0.011227771 0.041563913 0.026335798 0.012552098 0.023659337
-0.014539186 -0.014539168 -0.007600536 -0.0145391645 -0.014539109 -0.014539054 0.02365934 -0.014539082
0.034195982 -0.03313085 -0.03313085 0.0052659684 0.0052659684 -0.012156436 -0.012156436 0.0122177955
0.0122177955 0.0122177955 0.0122177955 0.0122177955 0.0122177955 -0.04484033 -0.031227123 -0.054579366
-0.05281519 -0.0429762 -0.05162706 -0.053227812 -0.053227812 -0.0064660786 -0.053227812 -0.053227812
-0.053227812 -0.051627032 -0.053227812 0.002933492 -0.057518307 -0.05457695 -0.05060124 -0.0566999
-0.050017484 -0.050017484 -0.052814513 -0.039272007 -0.052812073 -0.021662889 -0.053276923 -0.052814547
1.3562617e-32 -8.292887e-33 -2.0146474e-33 -1.6267137e-32 1.2256771e-32 -4.5515637e-33 -8.96066e-33 -6.814824e-33
1.8586059e-32 1.0703221e-33 -9.5265905e-33 -9.480093e-33 -1.1935968e-32 -9.480093e-33 -9.511806e-33 -9.494609e-33
8.70267e-34 -9.481789e-33 9.197906e-33 1.9345438e-32 1.9346523e-32 -1.5125516e-33 -1.4831384e-33 1.6323736e-32
00000000: f068 093b 6e6d f1bc dda5 2f3c da01 203a
00000010: b6fc bc3c 98c6 193c d278 a9bc 582e 34bd
00000020: 0cdd 02bd 0482 b2bc 02dd 6e3c 02dd 6e3c
00000030: b675 783b 02dd 6e3c 02dd 6e3c 06dd 6e3c
00000040: 0482 b2bc 06dd 6e3c d234 bb3c 9702 26bd
00000050: 9702 26bd b686 5fba b686 5fba d1c8 1d3c
00000060: d1c8 1d3c d9fa ba3c d9fa ba3c d9fa ba3c
00000070: d9fa ba3c d9fa ba3c d9fa ba3c 5f23 503c
00000080: 3c35 2d3d 539b 2bbd b209 84bd d0ff b63c
00000090: 5901 f2bc f041 053c f041 053c d415 263d
000000a0: f041 053c f041 053c f041 053c 5901 f2bc
000000b0: f041 053c 1453 8a3d 56e3 82bc 539b 2bbd
000000c0: 7203 7dbc a2ba 40bd 530f 523c 530f 523c
000000d0: b209 84bd d68b abbc b209 84bd 1186 173d
000000e0: 781d 80bc b209 84bd aa4d 613e f711 2c3c
000000f0: 1649 413d c1f9 a9ba e805 d83c 0c77 503d
00000100: 3d87 97bb 918b b1bc 7b5a 57bc 9e73 bc3a
00000110: fb4b 073d 004c 073d c18f 383c fd4b 073d
00000120: fd4b 073d 004c 073d a373 bc3a ff4b 073d
00000130: fd9d a83c 5e45 303c 5e45 303c d5dc 643c
00000140: d5dc 643c d633 073c d633 073c 6773 d23b
00000150: 6773 d23b 6773 d23b 6773 d23b 6773 d23b
00000160: 6773 d23b 05b8 81bd e4db debd 2742 7bbc
00000170: 145e 0abc fd23 95bd 7c0c ecbc ddb5 67bd
00000180: c9b5 67bd 0493 efbd 99b5 67bd a5b5 67bd
00000190: dbb5 67bd ed0e ecbc bdb5 67bd a521 03be
000001a0: 3099 17bd 6255 7bbc 4a93 13bd 035f 87bc
000001b0: 2dda 88bd 2eda 88bd 2701 0abc 7d8e 0dbd
000001c0: d76a 0abc 03a5 3abd 7c88 15bd c76a 0abc
000001d0: da6b 2dbc 0be3 103c 59fe c7bc 9c6b b83b
000001e0: 4393 95bc c1d0 4dbd e28b 5a3c f8df 663d
000001f0: c10e 143d 3dc7 a03c 7608 b3bc 7608 b3bc
00000200: b87c 11bd 7608 b3bc 7608 b3bc 7608 b3bc
00000210: 3cc7 a03c 7608 b3bc e178 b8bc fd6d f6bb
00000220: fd6d f6bb 7b17 93ba 7b17 93ba cf3e 78bc
00000230: cf3e 78bc 2ab2 66b9 2ab2 66b9 2ab2 66b9
00000240: 2ab2 66b9 00b2 66b9 2ab2 66b9 08d6 59bc
00000250: 29a0 2dbd cb53 f53c cbb8 483d ced1 05bd
00000260: 77a2 bb3c be59 acbc be59 acbc 75f2 14bd
00000270: be59 acbc be59 acbc be59 acbc 77a2 bb3c
00000280: be59 acbc 9c9d 56bd 4169 c43b cb53 f53c
00000290: d4b1 223c a93b 0b3d 6f5f 9bbc 6f5f 9bbc
000002a0: cbb8 483d 55c3 d43c cbb8 483d ddff 0abd
000002b0: 64bf 0f3c cbb8 483d 7f8d 973d 9249 56b7
000002c0: 3e38 22bd 1f8e 48bb 70fb a2bb aff4 373c
000002d0: ec3e 2a3d 2cbe d73c 51a7 4d3c 3ad1 c13c
000002e0: c435 6ebc b135 6ebc eb0d f9bb ad35 6ebc
000002f0: 7135 6ebc 3635 6ebc 3bd1 c13c 5435 6ebc
00000300: 1611 0c3d 37b4 07bd 37b4 07bd 258e ac3b
00000310: 258e ac3b ca2b 47bc ca2b 47bc 262d 483c
00000320: 262d 483c 262d 483c 262d 483c 262d 483c
00000330: 262d 483c 7eaa 37bd 06d0 ffbc 9d8e 5fbd
00000340: be54 58bd d007 30bd e576 53bd 6805 5abd
00000350: 6805 5abd 66e1 d3bb 6805 5abd 6805 5abd
00000360: 6805 5abd de76 53bd 6805 5abd d43f 403b
00000370: 5198 6bbd 148c 5fbd 3f43 4fbd 283e 68bd
00000380: 22df 4cbd 22df 4cbd 0854 58bd afdb 20bd
00000390: 7951 58bd 5f76 b1bc e738 5abd 1154 58bd
000003a0: 9fd7 8c0a 8d3c 2c8a d05e 2789 78ed a88a
000003b0: 2c90 7e0a 8710 bd89 0a1b 3a8a d289 0d8a
000003c0: 3802 c10a 78d6 b108 0bdc 458a d2e4 448a
000003d0: 7ee6 778a d2e4 448a 6f8d 458a 0032 458a
000003e0: 1099 9008 d6ed 448a 7508 3f0a ffe4 c80a
000003f0: e1e7 c80a d450 fb88 bb6d f688 ef83 a90a

model/dense_1/MatMul f4 [41, 83]
-0.06122731 0.051452603 0.06177319 -0.0037686387 -6.559943e-33 0.021803247 -0.0036870237 0.056583438
-0.029879132 -8.60578e-33 1.16306585e-32 0.036546312 -0.049701724 -1.6939754e-32 0.021098126 0.051396556
0.028800104 -0.03376178 3.6066485e-33 -0.06225634 -0.023391722 6.501071e-33 -0.015936624 0.048040655
-1.0746917e-32 -0.005008101 0.023279492 0.00048019504 -1.30387e-32 2.6456355e-32 0.05717605 -0.070705205
0.04929263 -1.4455098e-32 0.044458233 -0.041464504 -0.041199464 0.0028101213 0.021849455 -1.0380748e-32
0.006070637 -0.03286839 -1.8453076e-32 0.026222883 0.026418785 -1.3795843e-32 -0.00640533 -3.5627847e-34
-0.025079569 -0.0030907015 0.03576983 2.9767626e-33 0.03914767 0.05598122 -0.043542273 0.0017591388
-0.008199721 0.05376214 9.612563e-33 -1.7506735e-19 1.441143e-32 -0.0275792 1.4548782e-32 0.030327193
-2.8172252e-33 -0.001089994 -0.0096610505 -0.00040249334 5.735603e-33 -0.006629237 0.046689093 0.056561075
-1.9155229e-32 0.035029948 3.89856e-34 0.037459083 0.0061335103 -0.060633674 0.041644875 -0.03423369
0.02272156 0.036691815 0.061858647 0.050373647 0.110922575 -0.027217332 0.095509924 1.6851545e-32
-0.005696676 -0.0035746577 -0.02244983 0.020316564 1.2733388e-32 -5.893712e-33 -0.00980992 -0.004033145
-3.4781026e-33 0.0057940646 0.028542554 -0.0057035307 -0.0028065573 -3.323405e-35 0.031533334 -0.010634179
-1.6957257e-32 0.005783781 -0.01669352 -5.2784226e-33 0.05857901 0.0032351662 -0.015128235 6.432444e-33
1.8702205e-32 0.036430653 0.053390056 -0.020899469 1.01956216e-32 0.09586097 0.032547493 -0.006449486
0.032502707 -0.0059128595 4.5407128e-33 0.0037352415 -0.009015457 -7.396422e-33 0.022809776 0.013839761
-5.050361e-32 0.09751293 -3.383802e-33 0.019313617 0.038778156 0.032409888 -5.9364944e-34 0.025100848
-0.015258065 0.009315083 -0.012829868 0.012166368 -0.02402769 -1.285961e-32 1.2086267e-25 -1.7930513e-32
0.01837197 6.887719e-33 0.05969795 -1.405639e-32 0.04297451 0.013901972 -0.029334398 -1.47985e-32
-0.028509792 -0.01981752 -0.031372145 6.535615e-33 0.004451679 1.6848103e-32 0.016122105 0.0037617243
0.024054043 0.026238553 -0.03740897 -0.0056435806 0.02008661 0.073551655 0.016615469 -0.009834001
0.017937597 0.023273924 -4.422071e-33 0.005392249 -0.020496037 0.015135334 -0.030538207 1.2317782e-32
-1.7953139e-32 0.006241957 -0.05554594 1.425068e-32 0.03641176 0.07881955 0.04045349 -0.040354587
6.693586e-33 0.0021875524 -0.017124794 -7.264383e-33 -0.015323758 0.003835233 -1.5194823e-32 0.015411754
0.061494574 -0.029365499 -7.5914255e-33 1.9754891e-32 0.049767815 -0.013742264 0.009973422 9.430139e-33
-0.007033299 0.011468064 -0.061451696 0.0145629 0.005815656 1.09850065e-32 0.018673085 -0.007184038
-1.280325e-32 0.15246268 0.11618003 -1.9905435e-32 0.0049985857 -1.20999584e-32 0.008212793 0.014328493
-0.006059067 -1.0173453e-32 0.00346434 0.006209037 0.033885237 -0.02256512 -0.005422109 0.0155281965
3.2387852e-33 -5.5458906e-14 2.5683486e-34 -0.023475036 -1.4293822e-32 -0.011023186 -1.40866e-32 0.016276387
-0.008965841 -0.05834824 -9.8923176e-33 -0.05987052 0.00892026 -0.000114356306 -2.4079358e-32 0.08597701
9.336907e-33 0.06697584 0.018900894 0.07028881 0.03762488 -0.057197396 0.0071443766 0.058812857
-0.015313339 -0.0023911123 0.11742204 -0.0052114855 0.026534306 -1.3566448e-32 0.0025984314 0.0017348821
00000000: 7dc9 7abd f7bf 523d e205 7d3d 44fb 76bb
00000010: a43e 088a b99c b23c fea1 71bb 09c4 673d
00000020: 15c5 f4bc 2dbc 328a 308f 710a 96b1 153d
00000030: 0994 4bbd 97e9 af8a fad5 ac3c 3285 523d
00000040: 32ee eb3c cb49 0abd 77d0 9509 8100 7fbd
00000050: ff9f bfbc 9f05 070a 868d 82bc 47c6 443d
00000060: 6934 5f8a ff1a a4bb a2b4 be3c b0c2 fb39
00000070: cf66 878a 875e 090b 6f31 6a3d e4cd 90bd
00000080: 12e7 493d 3e1c 968a d619 363d afd6 29bd
00000090: c5c0 28bd 032a 383b a1fd b23c 8699 578a
000000a0: 32ec c63b 01a1 06bd b1a0 bf8a 5fd1 d63c
000000b0: 356c d83c a443 8f8a cde3 d1bb a4c9 ec87
000000c0: ab73 cdbc 5e8d 4abb 6383 123d bd4c 7709
000000d0: 4f59 203d 904c 653d 6259 32bd e792 e63a
000000e0: 1f58 06bc b135 5c3d 27a5 470a dcae 4ea0
000000f0: 27a8 950a c6ed e1bc 4c15 970a bc70 f83c
00000100: c10b 6a89 21de 8eba 6249 1ebc be05 d3b9
00000110: 653f ee09 123a d9bb 103d 3f3d 96ac 673d
00000120: 55eb c68a 907b 0f3d 488d 0108 b26e 193d
00000130: 9dfb c83b 045b 78bd d193 2a3d a038 0cbd
00000140: 9122 ba3c 284a 163d 7e5f 7d3d 9954 4e3d
00000150: 602b e33d e2f6 debc b59a c33d 17ff ae0a
00000160: 2fab babb ce44 6abb b5e8 b7bc ec6e a63c
00000170: 273b 840a b2d0 f489 c9b9 20bc 7928 84bb
00000180: 8879 9089 23dc bd3b 13d2 e93c afe4 babb
00000190: 38ee 37bb d8b3 3086 1929 013d fb3a 2ebc
000001a0: 1f18 b08a df85 bd3b d9c0 88bc d141 db89
000001b0: 8bf0 6f3d 1505 543b 6bdc 77bc bd98 050a
000001c0: fd36 c20a 4f38 153d 88af 5a3d 5d35 abbc
000001d0: 39c1 530a c252 c43d 8550 053d 3656 d3bb
000001e0: 8f21 053d a9c0 c1bb 249d bc09 f4ca 743b
000001f0: 91b5 13bc 209e 198a 91db ba3c 2ac0 623c
00000200: 681d 838b dcb4 c73d c18e 8c89 9737 9e3c
00000210: d8d5 1e3d 3bc0 043d 1c46 4588 4ba0 cd3c
00000220: f7fc 79bc 4a9e 183c 5e34 52bc 7255 473c
00000230: b8d5 c4bc b58a 858a e99e 1516 7b33 ba8a
00000240: d080 963c 650d 0f0a d685 743d 4bf8 918a
00000250: 0a06 303d 19c5 633c b14e f0bc 29ad 998a
00000260: 5e8d e9bc 5a58 a2bc 1480 00bd 4abd 070a
00000270: 64df 913b f1f5 ae0a 8112 843c 4387 763b
00000280: fc0c c53c 3cf2 d63c 263a 19bd c9ed b8bb
00000290: ad8c a43c 40a2 963d 2a1d 883c ca1e 21bc
000002a0: def1 923c f5a8 be3c 86af b789 77b1 b03b
000002b0: 4ee7 a7bc 31fa 773c 432b fabc 90d4 7f0a
000002c0: a16f ba8a 5589 cc3b 2484 63bd cefc 930a
000002d0: 7f24 153d 256c a13d 8fb2 253d da4a 25bd
000002e0: 3505 0b0a 0a5d 0f3b 4c49 8cbc 16e0 168a
000002f0: 8010 7bbc 8858 7b3b c5ca 9d8a 9581 7c3c
00000300: bce1 7b3d ea8f f0bc f1aa 1d8a 8225 cd0a
00000310: 56d9 4b3d 3c27 61bc 9067 233c 38db 430a
00000320: 9777 e6bb 8ce4 3b3c c6b4 7bbd 3b99 6e3c
00000330: 4291 be3b 5026 640a 4cf8 983c 1468 ebbb
00000340: e0f4 848a 2d1f 1c3e ccef ed3d b9b5 ce8a
00000350: 2dcb a33b 6a4e 7b8a f38e 063c 0ec2 6a3c
00000360: 238b c6bb 5b4b 538a fb09 633b 2d75 cb3b
00000370: 3fcb 0a3d 7dda b8bc f2ab b1bb fa69 7e3c
00000380: ac88 8609 c4c3 79a9 30b2 aa07 b84e c0bc
00000390: 7f6f 948a 989a 34bc 9b48 928a 0f56 853c
000003a0: 76e5 12bc 90fe 6ebd 9574 4d8a ca3a 75bd
000003b0: 4826 123c 93d2 efb8 ea0d fa8a b714 b03d
000003c0: 83eb 410a a12a 893d 0cd6 9a3c 94f3 8f3d
000003d0: 8c1c 1a3d d147 6abd 601b ea3b c0e5 703d
000003e0: cde4 7abc 35b4 1cbb f77a f03d 1cc5 aabb
000003f0: 795e d93c cee1 8c8a 724a 2a3b fc64 e33a
